{"format": "layers-model", "generatedBy": "keras v2.2.4-tf", "convertedBy": "TensorFlow.js Converter v1.3.2", "modelTopology": {"keras_version": "2.2.4-tf", "backend": "tensorflow", "model_config": {"class_name": "Sequential", "config": {"name": "sequential", "layers": [{"class_name": "Conv2D", "config": {"name": "conv2d", "trainable": true, "batch_input_shape": [null, null, null, 52], "dtype": "float32", "filters": 20, "kernel_size": [1, 1], "strides": [1, 1], "padding": "valid", "data_format": "channels_last", "dilation_rate": [1, 1], "activation": "tanh", "use_bias": true, "kernel_initializer": {"class_name": "RandomNormal", "config": {"mean": 0, "stddev": 1, "seed": null}}, "bias_initializer": {"class_name": "RandomNormal", "config": {"mean": 0, "stddev": 1, "seed": null}}, "kernel_regularizer": null, "bias_regularizer": null, "activity_regularizer": null, "kernel_constraint": null, "bias_constraint": null}}, {"class_name": "Conv2D", "config": {"name": "conv2d_1", "trainable": true, "dtype": "float32", "filters": 20, "kernel_size": [1, 1], "strides": [1, 1], "padding": "valid", "data_format": "channels_last", "dilation_rate": [1, 1], "activation": "tanh", "use_bias": true, "kernel_initializer": {"class_name": "RandomNormal", "config": {"mean": 0, "stddev": 1, "seed": null}}, "bias_initializer": {"class_name": "RandomNormal", "config": {"mean": 0, "stddev": 1, "seed": null}}, "kernel_regularizer": null, "bias_regularizer": null, "activity_regularizer": null, "kernel_constraint": null, "bias_constraint": null}}, {"class_name": "Conv2D", "config": {"name": "conv2d_2", "trainable": true, "dtype": "float32", "filters": 20, "kernel_size": [1, 1], "strides": [1, 1], "padding": "valid", "data_format": "channels_last", "dilation_rate": [1, 1], "activation": "tanh", "use_bias": true, "kernel_initializer": {"class_name": "RandomNormal", "config": {"mean": 0, "stddev": 1, "seed": null}}, "bias_initializer": {"class_name": "RandomNormal", "config": {"mean": 0, "stddev": 1, "seed": null}}, "kernel_regularizer": null, "bias_regularizer": null, "activity_regularizer": null, "kernel_constraint": null, "bias_constraint": null}}, {"class_name": "Conv2D", "config": {"name": "conv2d_3", "trainable": true, "dtype": "float32", "filters": 20, "kernel_size": [1, 1], "strides": [1, 1], "padding": "valid", "data_format": "channels_last", "dilation_rate": [1, 1], "activation": "tanh", "use_bias": true, "kernel_initializer": {"class_name": "RandomNormal", "config": {"mean": 0, "stddev": 1, "seed": null}}, "bias_initializer": {"class_name": "RandomNormal", "config": {"mean": 0, "stddev": 1, "seed": null}}, "kernel_regularizer": null, "bias_regularizer": null, "activity_regularizer": null, "kernel_constraint": null, "bias_constraint": null}}, {"class_name": "Conv2D", "config": {"name": "conv2d_4", "trainable": true, "dtype": "float32", "filters": 20, "kernel_size": [1, 1], "strides": [1, 1], "padding": "valid", "data_format": "channels_last", "dilation_rate": [1, 1], "activation": "tanh", "use_bias": true, "kernel_initializer": {"class_name": "RandomNormal", "config": {"mean": 0, "stddev": 1, "seed": null}}, "bias_initializer": {"class_name": "RandomNormal", "config": {"mean": 0, "stddev": 1, "seed": null}}, "kernel_regularizer": null, "bias_regularizer": null, "activity_regularizer": null, "kernel_constraint": null, "bias_constraint": null}}, {"class_name": "Conv2D", "config": {"name": "conv2d_5", "trainable": true, "dtype": "float32", "filters": 20, "kernel_size": [1, 1], "strides": [1, 1], "padding": "valid", "data_format": "channels_last", "dilation_rate": [1, 1], "activation": "tanh", "use_bias": true, "kernel_initializer": {"class_name": "RandomNormal", "config": {"mean": 0, "stddev": 1, "seed": null}}, "bias_initializer": {"class_name": "RandomNormal", "config": {"mean": 0, "stddev": 1, "seed": null}}, "kernel_regularizer": null, "bias_regularizer": null, "activity_regularizer": null, "kernel_constraint": null, "bias_constraint": null}}, {"class_name": "Conv2D", "config": {"name": "conv2d_6", "trainable": true, "dtype": "float32", "filters": 20, "kernel_size": [1, 1], "strides": [1, 1], "padding": "valid", "data_format": "channels_last", "dilation_rate": [1, 1], "activation": "tanh", "use_bias": true, "kernel_initializer": {"class_name": "RandomNormal", "config": {"mean": 0, "stddev": 1, "seed": null}}, "bias_initializer": {"class_name": "RandomNormal", "config": {"mean": 0, "stddev": 1, "seed": null}}, "kernel_regularizer": null, "bias_regularizer": null, "activity_regularizer": null, "kernel_constraint": null, "bias_constraint": null}}, {"class_name": "Conv2D", "config": {"name": "conv2d_7", "trainable": true, "dtype": "float32", "filters": 20, "kernel_size": [1, 1], "strides": [1, 1], "padding": "valid", "data_format": "channels_last", "dilation_rate": [1, 1], "activation": "tanh", "use_bias": true, "kernel_initializer": {"class_name": "RandomNormal", "config": {"mean": 0, "stddev": 1, "seed": null}}, "bias_initializer": {"class_name": "RandomNormal", "config": {"mean": 0, "stddev": 1, "seed": null}}, "kernel_regularizer": null, "bias_regularizer": null, "activity_regularizer": null, "kernel_constraint": null, "bias_constraint": null}}, {"class_name": "Conv2D", "config": {"name": "conv2d_8", "trainable": true, "dtype": "float32", "filters": 3, "kernel_size": [1, 1], "strides": [1, 1], "padding": "valid", "data_format": "channels_last", "dilation_rate": [1, 1], "activation": "sigmoid", "use_bias": true, "kernel_initializer": {"class_name": "RandomNormal", "config": {"mean": 0, "stddev": 1, "seed": null}}, "bias_initializer": {"class_name": "RandomNormal", "config": {"mean": 0, "stddev": 1, "seed": null}}, "kernel_regularizer": null, "bias_regularizer": null, "activity_regularizer": null, "kernel_constraint": null, "bias_constraint": null}}]}}}, "weightsManifest": [{"paths": ["group1-shard1of1.bin"], "weights": [{"name": "conv2d/kernel", "shape": [1, 1, 52, 20], "dtype": "float32"}, {"name": "conv2d/bias", "shape": [20], "dtype": "float32"}, {"name": "conv2d_1/kernel", "shape": [1, 1, 20, 20], "dtype": "float32"}, {"name": "conv2d_1/bias", "shape": [20], "dtype": "float32"}, {"name": "conv2d_2/kernel", "shape": [1, 1, 20, 20], "dtype": "float32"}, {"name": "conv2d_2/bias", "shape": [20], "dtype": "float32"}, {"name": "conv2d_3/kernel", "shape": [1, 1, 20, 20], "dtype": "float32"}, {"name": "conv2d_3/bias", "shape": [20], "dtype": "float32"}, {"name": "conv2d_4/kernel", "shape": [1, 1, 20, 20], "dtype": "float32"}, {"name": "conv2d_4/bias", "shape": [20], "dtype": "float32"}, {"name": "conv2d_5/kernel", "shape": [1, 1, 20, 20], "dtype": "float32"}, {"name": "conv2d_5/bias", "shape": [20], "dtype": "float32"}, {"name": "conv2d_6/kernel", "shape": [1, 1, 20, 20], "dtype": "float32"}, {"name": "conv2d_6/bias", "shape": [20], "dtype": "float32"}, {"name": "conv2d_7/kernel", "shape": [1, 1, 20, 20], "dtype": "float32"}, {"name": "conv2d_7/bias", "shape": [20], "dtype": "float32"}, {"name": "conv2d_8/kernel", "shape": [1, 1, 20, 3], "dtype": "float32"}, {"name": "conv2d_8/bias", "shape": [3], "dtype": "float32"}]}]}